{"architecture":{"class_name":"Functional","config":{"name":"functional_1","layers":[{"class_name":"InputLayer","config":{"batch_input_shape":[null,40],"dtype":"float32","sparse":false,"ragged":false,"name":"InputKado1"},"name":"InputKado1","inbound_nodes":[]},{"class_name":"InputLayer","config":{"batch_input_shape":[null,40],"dtype":"float32","sparse":false,"ragged":false,"name":"InputKado2"},"name":"InputKado2","inbound_nodes":[]},{"class_name":"InputLayer","config":{"batch_input_shape":[null,40],"dtype":"float32","sparse":false,"ragged":false,"name":"InputKado3"},"name":"InputKado3","inbound_nodes":[]},{"class_name":"InputLayer","config":{"batch_input_shape":[null,40],"dtype":"float32","sparse":false,"ragged":false,"name":"InputKado4"},"name":"InputKado4","inbound_nodes":[]},{"class_name":"InputLayer","config":{"batch_input_shape":[null,32],"dtype":"float32","sparse":false,"ragged":false,"name":"InputHen5"},"name":"InputHen5","inbound_nodes":[]},{"class_name":"InputLayer","config":{"batch_input_shape":[null,32],"dtype":"float32","sparse":false,"ragged":false,"name":"InputHen6"},"name":"InputHen6","inbound_nodes":[]},{"class_name":"InputLayer","config":{"batch_input_shape":[null,32],"dtype":"float32","sparse":false,"ragged":false,"name":"InputHen7"},"name":"InputHen7","inbound_nodes":[]},{"class_name":"InputLayer","config":{"batch_input_shape":[null,32],"dtype":"float32","sparse":false,"ragged":false,"name":"InputHen8"},"name":"InputHen8","inbound_nodes":[]},{"class_name":"InputLayer","config":{"batch_input_shape":[null,32],"dtype":"float32","sparse":false,"ragged":false,"name":"InputHen9"},"name":"InputHen9","inbound_nodes":[]},{"class_name":"InputLayer","config":{"batch_input_shape":[null,32],"dtype":"float32","sparse":false,"ragged":false,"name":"InputHen10"},"name":"InputHen10","inbound_nodes":[]},{"class_name":"Dense","config":{"name":"Dense2Kado1","trainable":true,"dtype":"float32","units":1,"activation":"linear","use_bias":true,"kernel_initializer":{"class_name":"GlorotUniform","config":{"seed":null}},"bias_initializer":{"class_name":"Zeros","config":{}},"kernel_regularizer":null,"bias_regularizer":null,"activity_regularizer":null,"kernel_constraint":null,"bias_constraint":null},"name":"Dense2Kado1","inbound_nodes":[[["InputKado1",0,0,{}]]]},{"class_name":"Dense","config":{"name":"Dense2Kado2","trainable":true,"dtype":"float32","units":1,"activation":"linear","use_bias":true,"kernel_initializer":{"class_name":"GlorotUniform","config":{"seed":null}},"bias_initializer":{"class_name":"Zeros","config":{}},"kernel_regularizer":null,"bias_regularizer":null,"activity_regularizer":null,"kernel_constraint":null,"bias_constraint":null},"name":"Dense2Kado2","inbound_nodes":[[["InputKado2",0,0,{}]]]},{"class_name":"Dense","config":{"name":"Dense2Kado3","trainable":true,"dtype":"float32","units":1,"activation":"linear","use_bias":true,"kernel_initializer":{"class_name":"GlorotUniform","config":{"seed":null}},"bias_initializer":{"class_name":"Zeros","config":{}},"kernel_regularizer":null,"bias_regularizer":null,"activity_regularizer":null,"kernel_constraint":null,"bias_constraint":null},"name":"Dense2Kado3","inbound_nodes":[[["InputKado3",0,0,{}]]]},{"class_name":"Dense","config":{"name":"Dense2Kado4","trainable":true,"dtype":"float32","units":1,"activation":"linear","use_bias":true,"kernel_initializer":{"class_name":"GlorotUniform","config":{"seed":null}},"bias_initializer":{"class_name":"Zeros","config":{}},"kernel_regularizer":null,"bias_regularizer":null,"activity_regularizer":null,"kernel_constraint":null,"bias_constraint":null},"name":"Dense2Kado4","inbound_nodes":[[["InputKado4",0,0,{}]]]},{"class_name":"Dense","config":{"name":"Dense2Hen5","trainable":true,"dtype":"float32","units":1,"activation":"linear","use_bias":true,"kernel_initializer":{"class_name":"GlorotUniform","config":{"seed":null}},"bias_initializer":{"class_name":"Zeros","config":{}},"kernel_regularizer":null,"bias_regularizer":null,"activity_regularizer":null,"kernel_constraint":null,"bias_constraint":null},"name":"Dense2Hen5","inbound_nodes":[[["InputHen5",0,0,{}]]]},{"class_name":"Dense","config":{"name":"Dense2Hen6","trainable":true,"dtype":"float32","units":1,"activation":"linear","use_bias":true,"kernel_initializer":{"class_name":"GlorotUniform","config":{"seed":null}},"bias_initializer":{"class_name":"Zeros","config":{}},"kernel_regularizer":null,"bias_regularizer":null,"activity_regularizer":null,"kernel_constraint":null,"bias_constraint":null},"name":"Dense2Hen6","inbound_nodes":[[["InputHen6",0,0,{}]]]},{"class_name":"Dense","config":{"name":"Dense2Hen7","trainable":true,"dtype":"float32","units":1,"activation":"linear","use_bias":true,"kernel_initializer":{"class_name":"GlorotUniform","config":{"seed":null}},"bias_initializer":{"class_name":"Zeros","config":{}},"kernel_regularizer":null,"bias_regularizer":null,"activity_regularizer":null,"kernel_constraint":null,"bias_constraint":null},"name":"Dense2Hen7","inbound_nodes":[[["InputHen7",0,0,{}]]]},{"class_name":"Dense","config":{"name":"Dense2Hen8","trainable":true,"dtype":"float32","units":1,"activation":"linear","use_bias":true,"kernel_initializer":{"class_name":"GlorotUniform","config":{"seed":null}},"bias_initializer":{"class_name":"Zeros","config":{}},"kernel_regularizer":null,"bias_regularizer":null,"activity_regularizer":null,"kernel_constraint":null,"bias_constraint":null},"name":"Dense2Hen8","inbound_nodes":[[["InputHen8",0,0,{}]]]},{"class_name":"Dense","config":{"name":"Dense2Hen9","trainable":true,"dtype":"float32","units":1,"activation":"linear","use_bias":true,"kernel_initializer":{"class_name":"GlorotUniform","config":{"seed":null}},"bias_initializer":{"class_name":"Zeros","config":{}},"kernel_regularizer":null,"bias_regularizer":null,"activity_regularizer":null,"kernel_constraint":null,"bias_constraint":null},"name":"Dense2Hen9","inbound_nodes":[[["InputHen9",0,0,{}]]]},{"class_name":"Dense","config":{"name":"Dense2Hen10","trainable":true,"dtype":"float32","units":1,"activation":"linear","use_bias":true,"kernel_initializer":{"class_name":"GlorotUniform","config":{"seed":null}},"bias_initializer":{"class_name":"Zeros","config":{}},"kernel_regularizer":null,"bias_regularizer":null,"activity_regularizer":null,"kernel_constraint":null,"bias_constraint":null},"name":"Dense2Hen10","inbound_nodes":[[["InputHen10",0,0,{}]]]},{"class_name":"InputLayer","config":{"batch_input_shape":[null,4],"dtype":"float32","sparse":false,"ragged":false,"name":"Input_count"},"name":"Input_count","inbound_nodes":[]},{"class_name":"Activation","config":{"name":"activation","trainable":true,"dtype":"float32","activation":"relu"},"name":"activation","inbound_nodes":[[["Dense2Kado1",0,0,{}]]]},{"class_name":"Activation","config":{"name":"activation_1","trainable":true,"dtype":"float32","activation":"relu"},"name":"activation_1","inbound_nodes":[[["Dense2Kado2",0,0,{}]]]},{"class_name":"Activation","config":{"name":"activation_2","trainable":true,"dtype":"float32","activation":"relu"},"name":"activation_2","inbound_nodes":[[["Dense2Kado3",0,0,{}]]]},{"class_name":"Activation","config":{"name":"activation_3","trainable":true,"dtype":"float32","activation":"relu"},"name":"activation_3","inbound_nodes":[[["Dense2Kado4",0,0,{}]]]},{"class_name":"Activation","config":{"name":"activation_4","trainable":true,"dtype":"float32","activation":"relu"},"name":"activation_4","inbound_nodes":[[["Dense2Hen5",0,0,{}]]]},{"class_name":"Activation","config":{"name":"activation_5","trainable":true,"dtype":"float32","activation":"relu"},"name":"activation_5","inbound_nodes":[[["Dense2Hen6",0,0,{}]]]},{"class_name":"Activation","config":{"name":"activation_6","trainable":true,"dtype":"float32","activation":"relu"},"name":"activation_6","inbound_nodes":[[["Dense2Hen7",0,0,{}]]]},{"class_name":"Activation","config":{"name":"activation_7","trainable":true,"dtype":"float32","activation":"relu"},"name":"activation_7","inbound_nodes":[[["Dense2Hen8",0,0,{}]]]},{"class_name":"Activation","config":{"name":"activation_8","trainable":true,"dtype":"float32","activation":"relu"},"name":"activation_8","inbound_nodes":[[["Dense2Hen9",0,0,{}]]]},{"class_name":"Activation","config":{"name":"activation_9","trainable":true,"dtype":"float32","activation":"relu"},"name":"activation_9","inbound_nodes":[[["Dense2Hen10",0,0,{}]]]},{"class_name":"Concatenate","config":{"name":"concatenate","trainable":true,"dtype":"float32","axis":-1},"name":"concatenate","inbound_nodes":[[["Input_count",0,0,{}],["activation",0,0,{}],["activation_1",0,0,{}],["activation_2",0,0,{}],["activation_3",0,0,{}],["activation_4",0,0,{}],["activation_5",0,0,{}],["activation_6",0,0,{}],["activation_7",0,0,{}],["activation_8",0,0,{}],["activation_9",0,0,{}]]]},{"class_name":"Dense","config":{"name":"dense","trainable":true,"dtype":"float32","units":100,"activation":"linear","use_bias":true,"kernel_initializer":{"class_name":"GlorotUniform","config":{"seed":null}},"bias_initializer":{"class_name":"Zeros","config":{}},"kernel_regularizer":null,"bias_regularizer":null,"activity_regularizer":null,"kernel_constraint":null,"bias_constraint":null},"name":"dense","inbound_nodes":[[["concatenate",0,0,{}]]]},{"class_name":"Activation","config":{"name":"activation_10","trainable":true,"dtype":"float32","activation":"relu"},"name":"activation_10","inbound_nodes":[[["dense",0,0,{}]]]},{"class_name":"Dense","config":{"name":"dense_1","trainable":true,"dtype":"float32","units":100,"activation":"linear","use_bias":true,"kernel_initializer":{"class_name":"GlorotUniform","config":{"seed":null}},"bias_initializer":{"class_name":"Zeros","config":{}},"kernel_regularizer":null,"bias_regularizer":null,"activity_regularizer":null,"kernel_constraint":null,"bias_constraint":null},"name":"dense_1","inbound_nodes":[[["activation_10",0,0,{}]]]},{"class_name":"Activation","config":{"name":"activation_11","trainable":true,"dtype":"float32","activation":"relu"},"name":"activation_11","inbound_nodes":[[["dense_1",0,0,{}]]]},{"class_name":"Dense","config":{"name":"dense_2","trainable":true,"dtype":"float32","units":10,"activation":"linear","use_bias":true,"kernel_initializer":{"class_name":"GlorotUniform","config":{"seed":null}},"bias_initializer":{"class_name":"Zeros","config":{}},"kernel_regularizer":null,"bias_regularizer":null,"activity_regularizer":null,"kernel_constraint":null,"bias_constraint":null},"name":"dense_2","inbound_nodes":[[["activation_11",0,0,{}]]]},{"class_name":"Activation","config":{"name":"activation_12","trainable":true,"dtype":"float32","activation":"relu"},"name":"activation_12","inbound_nodes":[[["dense_2",0,0,{}]]]},{"class_name":"Dense","config":{"name":"dense_3","trainable":true,"dtype":"float32","units":1,"activation":"sigmoid","use_bias":true,"kernel_initializer":{"class_name":"GlorotUniform","config":{"seed":null}},"bias_initializer":{"class_name":"Zeros","config":{}},"kernel_regularizer":null,"bias_regularizer":null,"activity_regularizer":null,"kernel_constraint":null,"bias_constraint":null},"name":"dense_3","inbound_nodes":[[["activation_12",0,0,{}]]]}],"input_layers":[["Input_count",0,0],["InputKado1",0,0],["InputKado2",0,0],["InputKado3",0,0],["InputKado4",0,0],["InputHen5",0,0],["InputHen6",0,0],["InputHen7",0,0],["InputHen8",0,0],["InputHen9",0,0],["InputHen10",0,0]],"output_layers":[["dense_3",0,0]]},"keras_version":"2.4.0","backend":"tensorflow"},"image_data_format":"channels_last","input_shapes":[[4],[40],[40],[40],[40],[32],[32],[32],[32],[32],[32]],"output_shapes":[[1]],"tests":[{"inputs":[{"shape":[4],"values":["olYnP7pWLL74tPA/Ho2pvg=="]},{"shape":[40],"values":["…"]},{"shape":[40],"values":["…"]},{"shape":[40],"values":["…"]},{"shape":[40],"values":["…"]},{"shape":[32],"values":["RnOBvi69aT8RcRFAZvGbvndU8b+EviM++7f1vvAZc7/Mzx0+vpd8vkBXfL0CE8y+NbFLvQpsNb++QsU+m3eDP88Pfj6u1pg/iVILv684UL6jwM2+77FHPqykvb/iAPm+/lJnP1xsvr4ypQ/ADpg7Pzn0C0CmWIY/e2U2P7nThr8="]},{"shape":[32],"values":["cgMBPyqig758nyRA9W4nv2xhkD1YypC/XVM0PvCFJMBG90u+0AE6wFGSA79TYck+JGGsPvrUrD7ZeAI/mKjdvvBvbb3gpKk+m52DvXdUgr6ZBOq/2LuKv/RrVD/PNlI/CwksvzfEpT+JMc0+AwEyvxrbBMD7Opi/rFiQvwCIGUA="]},{"shape":[32],"values":["U1dJv4rej78yWyQ/ZpZhv/NIbL+YkCQ/cg34PQ733r8vZv0+L2MlP60LlT5/HdA/e66kPQWlQb/b5ts+Uu8gwBPeFT8K8P8+I2RqP2OWaL/ou3C/PfPqv3qRhr94Rlg/DcHQvno6mT4MEwO++w65v646HMDjrP89MmHqPzF0oj4="]},{"shape":[32],"values":["FuCgP42iMb8XirU+ff3bPupHnD79pg0/R2wBwOuclz6YrKQ816iIPc7Bzj6CUwNAFUWnvgTmrT41sUs8R8Wsv+JtqL/krwQ+tmvRvzsmsz+a+X0/hUpGv2WUGD2OpXa/vHhzvy3A3z9FBgq/HJYfvVt3w7+wyxW/cehovQKYUEA="]},{"shape":[32],"values":["cWapvh2IvL8/oEi/XcVHv3VaPj+O3ak8decCwGwJmz8RHrm/1MvZvrO7dj8KItq+nghXPTrHOb8OiJi/AlIGvmmgrD4CaKg/KNFvP/+5hb9Ayd69V7H5vsrfsr9z2aG+YHRTPyY7g7yKhQE/9fo8Py0nZz6nTMC/8s2XP/eZbb8="]},{"shape":[32],"values":["BNDGPz4NbT8GCOE9xVzCP0VWKz+vzP0+9eGTPy8P9j6+Fro/OQ1AP3s0dj/0CM8/p8K5P0ibKL+3Myy/Gxjrv3xVgjsb56k/WAYgPEpAhj41ZLO+vAWBvlEikz8r73Y9CnzXvS3CaD+0Hpg+r2nfP/VSHkC1Esw/hpigPbKU0z0="]}],"outputs":[{"shape":[1],"values":["AACAPw=="]}]}],"trainable_params":{"Dense2Kado1":{"weights":["…"],"bias":["oLGxug=="]},"Dense2Kado2":{"weights":["…"],"bias":["gZhyvQ=="]},"Dense2Kado3":{"weights":["…"],"bias":["+4b9Pg=="]},"Dense2Kado4":{"weights":["…"],"bias":["oKaivg=="]},"Dense2Hen5":{"weights":["3XyDPtaOQD//ihC+M3oKP9IRcj3L/ou8xu1guxh75z0EYXS93Bk6PZm8D73G4NA9LOVbvct6BL2nyoG9ab48vSMyN72l8aq8jcRovegMprohacO9ktJ4PQU1zL17Zlw9T978PQQr3bxrwik9k0oUPlHCrT4D0DA/YlcpvggrBz8="],"bias":["yhXhPQ=="]},"Dense2Hen6":{"weights":["CAqBPwojWr1Z5Qw/YTe0PLOIjT0V7PY9siqmPUEbNjyX9pM9rNvtPOtlCT0hrkg6B0p4PKZUZjuhRlc9YDmxvdqt6D1lLu49JHGkPVW5zDwTkhg8E7fwvP2nIT1HIHi9VoiQPKprGjzIG3M82cAevbnSej9bcd29aooeP9O15b0="],"bias":["P1kevg=="]},"Dense2Hen7":{"weights":["tEIdvjrKBb8wvTI+D/p5vtbiqDwmrz67yW5ZPc6kXLu5IKg7Sxdmva4AGb2NBFy9fwg0PsmfWz5HkOM92suwPd/acj0tYYc9UOoyPKYnLj1UVQo+zoWvvK+ktT27z229SDv7va0mZT01qgI9a7rdvYNorr6Od7u/S3AoPlVh7L4="],"bias":["1iMVPw=="]},"Dense2Hen8":{"weights":["keuGP+NajL0MOBU/PAlYPLXMJ70e5Uo9ZuWiPSNUM73eJLI9e7tNvPhPhD3mNLS8Pa7wPHC4Fj1pLWw8vQH8vV2lYj2B55W88NpGvMSsQr0DGqY90RJiOypepD1i5k+99tQLvWnDZT15D2Q9tTGYvb6qdj9KyRW+iy8UPxw1fr0="],"bias":["FxkbvQ=="]},"Dense2Hen9":{"weights":["7WhEv2o6xT4FCJ6/Ey/JvQkU6z6Jgca+i3VxvW++KT0Mw3Y9S6s1vmHFYT/iLlq+VpRlvwzNbT5YXmM9mFITvgHhN79FCcc+aJAvPWOExb6RJCg8pz4/vvvXVT86OkS+osimPkAAwb5xphG8fa2QPIqcfr9ZhLM+0oumvmkSYTw="],"bias":["O7J1vQ=="]},"Dense2Hen10":{"weights":["fgMIP5Asvz2HVlk/3/QBP5KbtzwTZiG9L8u1PhJ27r1ZuHe9Zq6FuXdcbb/+uFW/VUWrvoc70zsrYMG+s+RkvhhhCb5pA+68cw7WvoDXmD6tLiy/Ft/rvmOkMb6SlIc/x5mAvjDfUL+z6CA+ruECvRvvcD7J7I88r0C7PtTf2T4="],"bias":["djeVvg=="]},"dense":{"weights":["…","…","…","…","…","…","…","…"],"bias":["…"]},"dense_1":{"weights":["…","…","…","…","…","…","…","…","…","…","…","…","…","…","…","…","…","…","…","…","…","…","…","…","…","…","…","…","…","…","…","…","…","…","…","…","…","…","…","…","…","…","…","…","…","…","…","…","…","…","…","…","9aM+v9pJiz4A3Sy+eO5QvEEOvb7ilM6+RqvLvhlP8T3eVcg+3jeivh4OVL71c+C+Gosgvvz7rz5zT9A+Ood1Pg=="],"bias":["…"]},"dense_2":{"weights":["…","…","…","…","…","…"],"bias":["kdLpPR5wmz6ThUA+1AJlPsuKqD1+7p0+yHxkvIs2DD4srFY9FiWGPg=="]},"dense_3":{"weights":["yvGEP84jpL9/hLQ/CvOhvwnr5T9Fic6/dbPPv/S2CUB1oJQ/RFLSvw=="],"bias":["+5uzvg=="]}},"hash":"8bd85dddfe7f0a83dc63dce09902a025f25a0515868f23761d042d0021d3460c"}